…
10. 10th model: Same model, same number of epochs but now, I have reduced the learning rate 10 times. Aaaannd...it got better. So, our model was skipping local minima because of a faster learning rate. Loss decreased intermittently until the 21st epoch. Cats are still confusing, only 39% accuracy.
    
    lr = 0.001

    Accuracy: 71%

11. 11th model: A different convolution layer architecture with 5 convolution layers where the 1st 3 upsamples the depth without any maxpooling and the rest downsamples depth and uses maxpooling to reduce image dimension. I'll just copy-paste it below.

    (conv1): Conv2d(3, 16, kernel_size=(3, 3), stride=(1, 1), padding=(1, 1))
    (conv2): Conv2d(16, 32, kernel_size=(3, 3), stride=(1, 1), padding=(1, 1))
    (conv3): Conv2d(32, 64, kernel_size=(3, 3), stride=(1, 1), padding=(1, 1))
    (conv4): Conv2d(64, 32, kernel_size=(3, 3), stride=(1, 1), padding=(1, 1))
    (conv5): Conv2d(32, 16, kernel_size=(3, 3), stride=(1, 1), padding=(1, 1))

    The idea behind this design is to let the network learn everything it can about the images in the first 3 convolution layers and then slowly discard unimportant features as it downsamples the feature matrices. Basically, this is how I would have started to learn if I were given a set of images to classify without any prior knowledge of what they were.
…
16. 16th model (second last trial): Kernel size is (5,5) for all 3 upsampling layers to correctly implement the idea from model #15. Same accuracy but with minimum of 56% for cats. Validation loss has been continuously decreasing over time, which is good news. Looks like the model has started learning to be less biased by sacrificing accuracy of certain classes to keep everything balanced.

    Accuracy: 73%

17. Final trial: Let the model train for 100 epochs with the same parameters and architecure as in #16.

    Best accuracy so far with 60% cat prediction and lowest validation loss at the 71st epoch!
    
    Accuracy: 76%

    Here are the final model parameters and accuracy levels:
    Net(
           (conv1): Conv2d(3, 16, kernel_size=(5, 5), stride=(1, 1), padding=(2, 2))
           (conv2): Conv2d(16, 32, kernel_size=(5, 5), stride=(1, 1), padding=(2, 2))
           (conv3): Conv2d(32, 64, kernel_size=(5, 5), stride=(1, 1), padding=(2, 2))
           (conv4): Conv2d(64, 32, kernel_size=(3, 3), stride=(1, 1), padding=(1, 1))
           (conv5): Conv2d(32, 16, kernel_size=(3, 3), stride=(1, 1), padding=(1, 1))

           (pool): MaxPool2d(kernel_size=2, stride=2, padding=0, dilation=1, ceil_mode=False)

           (fc1): Linear(in_features=1024, out_features=512, bias=True)
           (fc2): Linear(in_features=512, out_features=256, bias=True)
           (fc3): Linear(in_features=256, out_features=128, bias=True)
           (fc4): Linear(in_features=128, out_features=10, bias=True)

           (dropout): Dropout(p=0.2, inplace=False)
           (softmax): LogSoftmax()
    )

    Test Loss: 0.725693

    Test Accuracy of airplane:   82% (826/1000)
    Test Accuracy of automobile: 86% (868/1000)
    Test Accuracy of bird:       64% (649/1000)
    Test Accuracy of cat:        60% (600/1000)
    Test Accuracy of deer:       70% (705/1000)
…
